model.pth (torch, 1567 bytes, 2 tensors)

layers.2494161698624.weight f4 [10, 10]
0	0xbdb12ed9	-0.086515136
1	0x3e5ac1ce	0.21362993
2	0x3d32f38f	0.043689307
3	0x3e092899	0.13394393
4	0xbde49a5c	-0.11162254
5	0x3e4d99ef	0.20078252
6	0xbd6b3a75	-0.057428796
7	0x3e25f633	0.16207199
8	0xbda83983	-0.082140945
9	0x3f08a049	0.53369576
10	0xbda7e8b8	-0.081986845
11	0x3e85fd68	0.26169896
12	0x3e307f6e	0.1723611
13	0x3cc22b1b	0.023702195
14	0xbde697be	-0.11259411
15	0xbde2d644	-0.11076024
16	0x3e93f6b1	0.28899148
17	0x3d334330	0.043765247
18	0x3ecde85e	0.40216345
19	0x3d8e9e8b	0.069638334
20	0x3dcf2e26	0.10116224
21	0x3cd26a5b	0.02568548
22	0x3d2c85c6	0.042119764
23	0x3b5ec770	0.0033993386
24	0x3e2632ec	0.16230363
25	0xbdc3620a	-0.09540184
26	0xbc8cebd6	-0.0172023
27	0x3f21f0dd	0.63258153
28	0x3c983dfd	0.018584246
29	0x3e0bbee4	0.13647038
30	0x3d16eb02	0.036845215
31	0x3e64b266	0.22333679
32	0x3e4323a3	0.19056563
33	0x3e50d6b1	0.20394398
34	0x3d47bf6e	0.048766546
35	0x3e3ee1d6	0.18640837
36	0x3e18f624	0.14937645
37	0x3d2e2f83	0.04252578
38	0xbd187cd7	-0.03722843
39	0xbd315357	-0.04329237
40	0xbe1cd61f	-0.15316056
41	0xbde50b77	-0.11183827
42	0x3e37bd80	0.17943382
43	0x3df8d6fb	0.12150379
44	0x3e14bf35	0.14526065
45	0x3f1663c6	0.5874599
46	0x3da0e74f	0.078566186
47	0x3e1761f3	0.14783458
48	0x3daee743	0.085402034
49	0xbdcb2477	-0.099190645
50	0x3cb69766	0.02228899
51	0x3d9bbfa3	0.07604911
52	0x3e625b7c	0.22105211
53	0x3d79bfb2	0.06097383
54	0x3ec6ec92	0.38852364
55	0xbde0c26f	-0.10974585
56	0xbccbc662	-0.02487487
57	0xbd4b8d7b	-0.049695473
58	0x3e675aba	0.22593203
59	0x3e2091f3	0.15680675
60	0x3e8f2c1c	0.2796334
61	0x3c228370	0.009919032
62	0xbd9a0279	-0.07520003
63	0x3e66ea7c	0.22550386
64	0x3e405892	0.18783787
65	0x3cd390cf	0.025825886
66	0xbe0be174	-0.13660222
67	0x3d8c8e41	0.0686307
68	0x3e762832	0.24038771
69	0x3df0af8d	0.11752234
70	0x3c5a3434	0.01331811
71	0xbdf2e643	-0.11860325
72	0x3f21ffa3	0.63280696
73	0x3d4e60d6	0.05038532
74	0x3da02e21	0.078212984
75	0x3e18f4eb	0.14937179
76	0xbd94bab6	-0.07262175
77	0x3df26a54	0.11836687
78	0xbdf6a32c	-0.12042841
79	0x3e7631cf	0.24042438
80	0x3e5cecef	0.21574758
81	0x3f1ce701	0.61289984
82	0xbc54329e	-0.012951521
83	0x3bcb694f	0.006207622
84	0x3d5bbb66	0.053645514
85	0xbdd935a7	-0.106059365
86	0xbe09471b	-0.13406031
87	0x3db8d603	0.090251945
88	0x3e41c2d0	0.18921971
89	0x3d9c5134	0.07632676
90	0x3ee91557	0.45524094
91	0x3e19f102	0.15033343
92	0xbd786905	-0.06064703
93	0x3e64b891	0.22336031
94	0x3dc11549	0.09427888
95	0xbd4bdc16	-0.049770437
96	0xbcf5bcd1	-0.029997261
97	0x3e323b9d	0.17405553
98	0xbca27911	-0.01983312
99	0x3d8603bd	0.06543682

layers.2494161698624.bias f4 [10]
0	0x3e959e42	0.29222304
1	0x3e826fd6	0.2547595
2	0xbcf6f010	-0.030143768
3	0x3d9e417b	0.07727333
4	0x3d19fa12	0.037592
5	0x3dc713bf	0.09720563
6	0x3e821e02	0.2541352
7	0x3e30d08a	0.17267051
8	0x3c98504e	0.01859298
9	0xbd5c1d0b	-0.053738635
