model.pth (torch, 2311 bytes, 5 tensors)

layers.2638910505312.weight f4 [2, 3]
-0.5016022 -0.5664556 -1.618707 0.5487542 0.8943217 0.8495556
00000000: 0069 00bf 3c03 11bf ca31 cfbf 287b 0c3f
00000010: 44f2 643f 7a7c 593f

layers.2638910505312.bias f4 [2]
-0.24248257 0.5673816
00000000: 5a4d 78be ec3f 113f

layers.2638910519328.weight f4 [2, 2]
-1.3841767 1.1270388 -0.2998568 0.8184868
00000000: b42c b1bf cf42 903f d586 99be 5a88 513f

layers.2638910519328.bias f4 [2]
0.78501797 -0.5687032
00000000: f0f6 483f 8896 11bf

layers.2638910519376.weight f4 [1, 2]
1.2404668 0.7780234
00000000: 9ec7 9e3f 8b2c 473f
